data.pth (torch, 2815 bytes, 6 tensors)

l1.weight f4 [8, 9]
000000 65 42 a9 3d 54 57 8f 3e 84 f1 a5 3e 56 49 60 3e
       0.08264617 0.27996314 0.32410824 0.21902975
000010 1b 1f 2c 3f 29 70 6f 3e d4 0f d0 be d7 07 e5 bd
       0.67234963 0.2338263 -0.40637076 -0.11183136
000020 04 8c 9b 3d 9f 7b 49 3d 88 7a 07 3f ff 6d 92 3e
       0.07595065 0.04919016 0.5292134 0.28599545
000030 87 cf cf 3e dc 93 35 3e 2a bc be 3e 9f 0f c8 be
       0.40588018 0.17732185 0.37252933 -0.39074418
000040 47 33 a9 3d 07 c5 8f 3e e6 ac 51 be cb e7 27 bd
       0.082617335 0.28080007 -0.20476112 -0.04099254
000050 90 4c 83 be c6 47 39 be 06 1c 2e be db 1d b8 3d
       -0.2564435 -0.18093786 -0.17002878 0.089900695
000060 20 12 60 be b8 71 79 3e 72 83 8b 3e 48 a4 25 3b
       -0.21881914 0.24359787 0.27248722 0.0025274921
000070 98 8f c3 3e 4f cd e9 3e 31 3b 13 3f fd d1 b6 3e
       0.3819549 0.4566445 0.57512194 0.35707083
000080 8d c2 5f 3d 09 3d 4a be 84 ec c4 3e 40 56 88 3e
       0.054628897 -0.19749846 0.38461697 0.26628304
000090 e5 ef 9f be 26 65 85 3e 06 5b 89 bd b5 0d 02 3e
       -0.31237713 0.26053733 -0.067068145 0.12700541
0000a0 2d 48 fd 3d 23 ca 27 3e c6 f8 4b 3f db c1 80 be
       0.12367282 0.16385703 0.79676473 -0.251479
0000b0 1b 63 43 3e fd 27 08 3f 13 fd ee 3e 55 7d 06 3f
       0.19080774 0.5318602 0.46677455 0.5253499
0000c0 82 d6 f4 3e 0b b9 2c 3f bf 9c 37 3e 51 63 3b be
       0.47819906 0.67469853 0.17930888 -0.18299605
0000d0 86 bd 0b 3f 9b 17 66 3e 7b 75 1d 3e ad 80 c9 3e
       0.54586065 0.22469942 0.15376846 0.39355984
0000e0 89 1a 06 3e ff 95 0d 3f 5c 15 8a be e4 c0 0a 3c
       0.1309606 0.55307 -0.2696942 0.00846884
0000f0 6c af 69 be 1f f3 dc 3e af f2 cb 3e e2 c8 8e be
       -0.22820824 0.43154237 0.3983359 -0.27887636
000100 be c4 89 3e 41 ae 4f 3e be 9f f1 3e 6b c5 f5 bd
       0.26907915 0.20281316 0.47192186 -0.12000545
000110 2a 5d a9 3e 46 19 1e be e0 d4 b5 3e ab 87 1d 3f
       0.3307889 -0.15439329 0.35513973 0.6153514

l1.bias f4 [8]
000000 87 03 d0 3e 70 f6 c7 3e 06 3a 90 be a9 11 4a 3e
       0.4062769 0.39055204 -0.28169268 0.197333
000010 c6 06 30 3f e5 2d 3b 3e aa 55 69 3e 25 97 21 3d
       0.68760335 0.18279226 0.22786584 0.039450783

l2.weight f4 [8, 8]
000000 2a 15 6d 3e 1c db 59 3f 36 04 56 3e f1 45 5a 3f
       0.23152605 0.8509996 0.20900044 0.8526297
000010 bb e4 83 be 4b 83 52 3f 02 1d ad 3e 7d 63 0b 3f
       -0.25760445 0.8223159 0.33811194 0.5444868
000020 92 52 3c 3f e9 2b 1e 3f 68 54 01 be c1 70 2f 3f
       0.7356349 0.6178575 -0.12629855 0.68531424
000030 d8 8c 0c 3e 27 c7 6b 3f 5a 3c 33 3f 08 ea 93 3e
       0.13725603 0.9210076 0.70013964 0.2888949
000040 b8 35 39 bd cc 16 ed be 85 fe 3a 3e 22 b2 dc be
       -0.045217246 -0.46306455 0.18261154 -0.43104655
000050 75 ac 23 3f 66 d9 89 be 2d 86 97 be f2 d1 aa bd
       0.63935024 -0.26923674 -0.29594555 -0.08340825
000060 50 74 10 bf 7b 49 46 be 46 6d 84 3e da 0c 9e 3d
       -0.5642748 -0.19363968 0.2586462 0.07717295
000070 95 d4 0c 3f 0d 41 6d bd 58 0b ce be ae 8d 13 3e
       0.55011874 -0.057923365 -0.4024303 0.14409515
000080 53 35 6f 3e ad 85 ee bc 2f 06 10 be fe 16 20 be
       0.23360185 -0.029116476 -0.14064859 -0.15633771
000090 90 ac 51 3d ac c3 52 be 76 11 de bd 40 aa d0 3d
       0.05118996 -0.20582455 -0.10843174 0.101887226
0000a0 c2 ce 6e be e0 b6 09 bf ad 8b 91 be 77 df 94 be
       -0.2332106 -0.5379467 -0.28426877 -0.2907674
0000b0 c0 3a 10 3f 18 2b 01 be f4 0a 22 3e 03 36 a7 3d
       0.56339645 -0.12614095 0.15824491 0.08164599
0000c0 d6 c0 49 3f 76 55 42 3f 0c 26 a3 3e 04 54 23 3f
       0.7880987 0.75911653 0.31864965 0.6380007
0000d0 16 7e 68 be 48 85 47 3f 72 f4 f5 3e 0c da e9 3e
       -0.22704348 0.77937746 0.4803806 0.4567417
0000e0 c3 bc 07 bf 53 cf b1 be 81 72 64 3d 97 17 03 3e
       -0.530224 -0.34728488 0.055773262 0.12801968
0000f0 9b 23 28 3f a9 f2 38 be 47 40 18 be e8 77 31 3d
       0.6567933 -0.18061318 -0.1486827 0.043327242

l2.bias f4 [8]
000000 be 2b c3 3e a4 bf 50 be 5b 82 7a 3e c5 44 8e 3e
       0.3811931 -0.20385605 0.24463789 0.27786842
000010 11 75 2d be 1b f3 83 3e a1 2b a6 3e d1 89 40 3e
       -0.16939189 0.25771412 0.3245516 0.18802573

l3.weight f4 [2, 8]
000000 11 b8 70 3d 7a 40 d6 3e 37 41 20 bf b1 2d 05 bf
       0.05876929 0.41846067 -0.6259951 -0.52022845
000010 4a 5f f3 bd 0b af fa be 38 d8 13 3f 00 e5 6e bf
       -0.11883409 -0.48961672 0.577518 -0.93318176
000020 b0 73 0b bf 0b 5b 81 bf 80 ca 3f 3f 14 8c 21 3f
       -0.544734 -1.0105909 0.74918365 0.6310437
000030 ab d5 a3 3e 60 a3 12 3f ca 7f cb 3b 27 9c 31 3f
       0.31998953 0.5728054 0.006210302 0.69378895

l3.bias f4 [2]
000000 3c d7 64 3e e3 67 f6 bd
       0.2234773 -0.120315336
